token_cnn_model.pth (torch, 571420 bytes, 7 tensors)

embed.weight f4 [30, 64]
000000 00 00 00 00 00 00 00 00 00 00 00 00 00 00 00 00
       0.0 0.0 0.0 0.0
000010 00 00 00 00 00 00 00 00 00 00 00 00 00 00 00 00
       0.0 0.0 0.0 0.0
000020 00 00 00 00 00 00 00 00 00 00 00 00 00 00 00 00
       0.0 0.0 0.0 0.0
000030 00 00 00 00 00 00 00 00 00 00 00 00 00 00 00 00
       0.0 0.0 0.0 0.0
000040 00 00 00 00 00 00 00 00 00 00 00 00 00 00 00 00
       0.0 0.0 0.0 0.0
000050 00 00 00 00 00 00 00 00 00 00 00 00 00 00 00 00
       0.0 0.0 0.0 0.0
000060 00 00 00 00 00 00 00 00 00 00 00 00 00 00 00 00
       0.0 0.0 0.0 0.0
000070 00 00 00 00 00 00 00 00 00 00 00 00 00 00 00 00
       0.0 0.0 0.0 0.0
000080 00 00 00 00 00 00 00 00 00 00 00 00 00 00 00 00
       0.0 0.0 0.0 0.0
000090 00 00 00 00 00 00 00 00 00 00 00 00 00 00 00 00
       0.0 0.0 0.0 0.0
0000a0 00 00 00 00 00 00 00 00 00 00 00 00 00 00 00 00
       0.0 0.0 0.0 0.0
0000b0 00 00 00 00 00 00 00 00 00 00 00 00 00 00 00 00
       0.0 0.0 0.0 0.0
0000c0 00 00 00 00 00 00 00 00 00 00 00 00 00 00 00 00
       0.0 0.0 0.0 0.0
0000d0 00 00 00 00 00 00 00 00 00 00 00 00 00 00 00 00
       0.0 0.0 0.0 0.0
0000e0 00 00 00 00 00 00 00 00 00 00 00 00 00 00 00 00
       0.0 0.0 0.0 0.0
0000f0 00 00 00 00 00 00 00 00 00 00 00 00 00 00 00 00
       0.0 0.0 0.0 0.0
000100 43 c4 ee be 9b a3 d5 3e 03 6a da 3d ef 4d 23 3f
       -0.4663411 0.41726384 0.106647514 0.6379079
000110 ee 1d 50 3f 68 20 62 3f a5 31 1e 3d 5f 15 9a bf
       0.8129567 0.883307 0.038621563 -1.2037772
000120 b4 01 b9 3f ed 4d c0 3e 62 78 19 3f f5 53 ba 3e
       1.4453645 0.37559453 0.59949315 0.3639218
000130 19 48 ef bf bc 21 8f be b6 a2 23 be 25 93 26 bf
       -1.8693877 -0.27955425 -0.15980038 -0.65068275
000140 c7 06 f9 be 45 c5 da 3e 07 a2 1b 3f 9e 8a 1a 3f
       -0.48637983 0.4272863 0.6079411 0.60367763
000150 b4 59 a1 be 27 31 54 c0 72 37 eb 3f fc ee 31 bf
       -0.3151375 -3.3155 1.8376296 -0.69505286
000160 55 81 12 3f 55 33 d3 3e 3a 76 84 bc c8 32 4b be
       0.57228595 0.412501 -0.016169656 -0.1984359
000170 47 ec f9 3e 10 f2 62 bf c6 c5 51 3f f3 a1 c9 3e
       0.48813078 -0.8865061 0.81942403 0.3938137
000180 97 7a f5 3f 98 8c 8f 3f 89 f5 b6 bf 7e 47 93 3f
       1.9178036 1.1214781 -1.4293681 1.1506193
000190 45 97 4e 3d ee c5 0b bf ca 7d 69 bf e6 38 85 3f
       0.05043723 -0.5459889 -0.91207564 1.0407989
0001a0 ab 7b 82 3f ff 70 35 3f b0 8f ef bf f9 6e 8e 3f
       1.019399 0.70875543 -1.8715725 1.1127616
0001b0 c5 a8 c9 3e 63 d4 2d bf cd 1e 09 3c ce 4f db 3e
       0.39386573 -0.679022 0.00836916 0.42834324
0001c0 45 d3 19 be 43 b6 41 3f 44 68 10 3f 3d 76 7c be
       -0.15021999 0.75668734 0.56409097 -0.2465448
0001d0 54 6d d8 3e a5 7f 1f 3f fd a7 f4 3f cb 34 8e bd
       0.4227091 0.62304145 1.9113766 -0.06943663
0001e0 7a 2b 8d bf 91 22 48 3f d4 13 3d be cb d2 4a bf
       -1.1028893 0.78177744 -0.18464595 -0.79227895
0001f0 9c f3 3c bf 93 49 e3 bf 90 e7 ca be da 6e d7 3e
       -0.7380922 -1.7756828 -0.39629793 0.4207676
000200 57 3f 5e bf c7 c3 12 bf 9f 70 a1 bf 63 c2 b5 bf
       -0.868154 -0.5732998 -1.2612494 -1.4199947
000210 5d 9e 91 3f fc d0 10 bd 61 2f 94 3f b8 aa 89 3f
       1.1376454 -0.035355553 1.1576959 1.0755224
000220 6b c4 ea bf e6 8c 15 c0 9c 64 61 3e 4b ab c6 3e
       -1.8341192 -2.3367248 0.22011036 0.3880256
000230 1b ed 50 3f c1 94 12 3d ec b7 24 40 64 aa a9 bf
       0.81611794 0.035786394 2.5737257 -1.3255124
000240 97 63 a7 3f ee ef 6b be b8 26 fe be e7 ba 77 bf
       1.3077267 -0.23040745 -0.49638915 -0.96769565
000250 ce 15 6e be fa 0a 36 bf 35 7a 05 3f 1b 08 84 3f
       -0.23250505 -0.711105 0.521396 1.0314974
000260 58 14 1d 3f 78 28 99 3d 20 b7 79 be cb 66 88 bf
       0.6135917 0.07478422 -0.24386263 -1.065637
000270 11 53 03 40 55 87 1c 3f 27 59 46 3f 96 43 05 3f
       2.051945 0.61144 0.77479786 0.5205625
000280 ba 0c b5 be 51 4c 41 bf dd 11 93 3e ef 81 48 bf
       -0.35361272 -0.75507075 0.28724566 -0.7832326
000290 da fe 01 3e 86 9b 91 be ce 4c 07 c0 f2 92 7b bf
       0.12694874 -0.28438967 -2.1140628 -0.98271096
0002a0 f5 01 8d be e7 31 ff 3d d6 8d 04 bf 2b 93 7f bf
       -0.27540556 0.1246069 -0.51778924 -0.99833935
0002b0 ce fa b5 3e 19 ec 13 bf 0a 35 4a 40 68 8c 4a be
       0.3554291 -0.5778213 3.1594872 -0.19780123
0002c0 07 4d 2d bf 7d f8 cc 3f 56 78 c3 bf 3f e0 0e bf
       -0.6769566 1.6013333 -1.5271099 -0.5581092
0002d0 f2 f8 06 3f 8f 76 bf 3f c5 b4 35 3e e1 ec 9c bf
       0.5272361 1.4958056 0.1774474 -1.225979
0002e0 9f 5c c2 3d c6 69 c0 3e 90 3d e3 3e 09 de d9 bf
       0.09490322 0.375807 0.44382906 -1.7020885
0002f0 f2 da 06 3f 39 65 c3 bf 86 78 49 3e 02 dc 80 3f
       0.52677834 -1.5265266 0.19674882 1.0067141
000300 5c f8 b6 be 30 23 6e 3f 4f 49 8d bf 39 ed 00 3f
       -0.35736358 0.9302244 -1.1037997 0.50361973
000310 36 75 f1 bd 08 30 14 be e3 30 3d bf 51 e6 1c c0
       -0.11789934 -0.14471447 -0.7390272 -2.4515574
000320 ee 8c 2c bf 99 cd 9e 3f 2c 0a 5b 3d 73 f8 20 3e
       -0.6740254 1.2406493 0.053476498 0.15719776
000330 2f e8 21 c0 8c 81 54 be 63 9c 3e 3e a5 04 e5 3e
       -2.5297964 -0.20752543 0.18614344 0.44730106
000340 ce 52 c4 3f 3c a1 d9 bf cc 46 1c 3e 1b da 0f 3f
       1.533777 -1.700233 0.15261382 0.5619218
000350 60 73 db 3f 16 3b a7 3e e6 d4 a0 3f c1 bb 92 3f
       1.7144585 0.32662266 1.2564971 1.1463548
000360 97 01 c2 3d e2 a8 a0 3e 83 53 c5 3f 28 b1 bd bf
       0.094729595 0.31378847 1.5416111 -1.4819689
000370 ec 20 c3 3f d5 eb c9 bd 1b 5e 2f bd a7 4a 04 bf
       1.5244422 -0.098594345 -0.042814355 -0.5167641
000380 2f 35 4d 3f aa 5a e1 bf 41 9b d4 3e f0 fc 78 bf
       0.80159277 -1.7605793 0.415247 -0.9726095
000390 71 72 c5 3c 23 57 62 bf e9 c4 73 be 93 ac 8b 3e
       0.024102421 -0.8841421 -0.23805584 0.272801
0003a0 1e 5f 50 3f d9 62 37 bd 11 d9 8b be d9 40 d1 3e
       0.8139514 -0.044772003 -0.27314046 0.40869787
0003b0 ad 4e b3 3f 71 df 49 3f 13 f9 76 3f 9d 7e d0 3e
       1.4008385 0.7885657 0.9647381 0.40721598
0003c0 2c c5 f9 bf 23 af 57 bf b0 aa c7 3c 7f b6 51 3f
       -1.9513297 -0.8425161 0.024373382 0.8191909
0003d0 a7 c3 99 3f 3a 74 e1 3e 3a e2 29 bf f2 55 1b 3f
       1.2012833 0.44033986 -0.6636082 0.6067802
0003e0 4a e2 35 bf 7b 9d c6 3f 68 e4 a1 3e c5 49 49 3f
       -0.71048415 1.5516809 0.31619573 0.7862819
0003f0 92 0f 22 c0 c7 71 37 bf 34 96 ac 3e ef 1c 1e bf
       -2.5322003 -0.71657985 0.33708346 -0.617629

conv.0.weight f4 [128, 64, 5]
000000 7f a9 d8 3c 1d fb 40 bd 73 d9 fe 3b 1e 0d 40 bc
       0.02644801 -0.04711448 0.007777387 -0.011721877
000010 77 ce 0e 3d b2 8c 8b 3c 6e d5 80 bd 86 02 36 3d
       0.03486487 0.017034862 -0.062907085 0.044436
000020 33 76 b9 bb 4a 34 88 bc 0c 80 d4 bd 81 86 9c bc
       -0.0056598424 -0.016626496 -0.103759855 -0.019107105
000030 18 85 36 bd ed 77 1a 3d f9 1c 3e bd c8 4c 17 bd
       -0.04456052 0.037712026 -0.04641435 -0.03693846
000040 71 30 80 bd 21 76 8d 3d a9 b8 b1 3c d6 7d 76 bc
       -0.062592395 0.06907297 0.021694498 -0.01504465
000050 11 60 55 bd 20 8d b5 3c 73 52 1d 3d 4c d5 42 bb
       -0.05209357 0.02216202 0.038408708 -0.0029729186
000060 c4 4e 39 3d 30 db 49 bd a2 a3 91 3d a5 d4 2f bd
       0.045241132 -0.0492813 0.071112886 -0.042927403
000070 09 5e 2c bd e6 ed d8 bb 9c 10 44 bc 81 fb b9 3d
       -0.042081866 -0.0066201566 -0.011966851 0.09081174
000080 cf 83 10 3d 6e 70 6c bd 18 dd 42 3c 2f 00 99 3d
       0.035281952 -0.05772441 0.011893533 0.07470738
000090 ad a2 fb bc a7 3f 8a 3d 4c cf f4 3c 6c 86 c7 3c
       -0.030717218 0.06750422 0.029884003 0.02435609
0000a0 ad 4e 21 bd 09 cc 39 3d ea 62 e0 3c ba fa 41 3d
       -0.03938167 0.0453606 0.027390916 0.047358252
0000b0 d4 d0 51 bd 18 40 cf 3c 44 b4 9f bd 54 45 7b 3c
       -0.051224545 0.025299117 -0.07798055 0.015336353
0000c0 c9 2b 7e 3c c8 81 b4 bc 95 b4 86 bd 51 d5 be 3c
       0.015513369 -0.02203454 -0.06577412 0.023295077
0000d0 68 76 0c bd 66 41 99 3c df 51 68 bd e1 56 1b bc
       -0.03429261 0.018707942 -0.056718703 -0.009481163
0000e0 5a 19 3e 3b 6c e7 54 bc ab f5 c4 3c 30 2f 3e 3b
       0.002900681 -0.012994628 0.024042925 0.0029019825
0000f0 e6 3e 27 bd bd 9f c1 bb e7 ac 65 3d a9 18 2d 3d
       -0.04083147 -0.005908935 0.056073096 0.042259846
000100 12 46 86 3d ed 06 b4 3b 1c b0 86 bc a0 82 73 3c
       0.065563336 0.0054939897 -0.016441397 0.014862686
000110 83 83 be b9 38 93 0e 3d 5b 8b 21 3d c0 82 96 3d
       -0.00036337608 0.034808367 0.03943954 0.07349157
000120 36 24 fa 3c a0 b5 9e bc 0e 7c 9e 3b ad e4 9b bc
       0.030534845 -0.019373715 0.004836566 -0.01902994
000130 7a 94 82 bd fb c6 12 bc 67 32 1b bd 21 d3 a7 3c
       -0.06375976 -0.008958573 -0.037889864 0.020486416
000140 e1 95 42 bd 56 a1 08 3c ca b0 40 3d 67 1f 80 bc
       -0.047506217 0.008339247 0.0470436 -0.015639974
000150 90 ed aa 3b ef bc b4 bc 93 c6 d0 bc 98 b0 be bc
       0.005216308 -0.022062747 -0.025485313 -0.023277566
000160 bb 0b 19 3d 1f b6 e3 3b ee 32 38 bd 29 1e c3 bc
       0.037364703 0.0069492008 -0.044970445 -0.023818092
000170 84 02 53 ba 0f 19 88 3c 37 08 9f bb b3 e8 cf 39
       -0.0008049386 0.016613511 -0.004853274 0.0003965549
000180 b8 37 95 bb b2 52 b3 3c b3 34 15 3d c6 99 2e bd
       -0.0045537613 0.021890018 0.03642721 -0.04262712
000190 16 15 8b ba 53 46 10 3c b7 7c 7c bb 6f 5d 11 3d
       -0.0010611142 0.008805829 -0.0038526484 0.035489496
0001a0 3a 93 13 bd 9a 02 4b 3d ba 08 15 3b 1f 5d 51 3d
       -0.036029078 0.049563028 0.0022740797 0.051114198
0001b0 35 9a 1f bd 31 50 a7 bc 1d 65 02 3d 92 d1 c3 bc
       -0.038965423 -0.02042398 0.03183471 -0.023903642
0001c0 70 57 39 3c 99 4a ec 3c cd 80 c3 3c de a0 e1 bb
       0.011312351 0.028844165 0.023865128 -0.006885632
0001d0 df 0a 5b 3d e0 f0 48 bd 14 a1 03 bd ab dc 17 bd
       0.053477164 -0.04905784 -0.032136038 -0.03707568
0001e0 48 5d 5e bd 3f ae ba 3c 3d 8b b2 ba 23 90 db bb
       -0.05428818 0.022788165 -0.0013621819 -0.006700532
0001f0 f7 4a c9 3b 5c 00 66 3c ef 1e 66 3c 5d 4c 2f 3d
       0.0061429697 0.014038172 0.014045461 0.042797435
000200 1a 97 29 bd 24 c5 8b bc b5 0c 20 bd 07 54 0b 3b
       -0.041403867 -0.017061777 -0.03907462 0.00212598
000210 20 c2 4e 3d 61 e9 0d bd 6a 67 a4 bc 49 04 83 bd
       0.0504781 -0.034646396 -0.020068843 -0.06397302
000220 b2 1a 21 bd 81 1a 5f 3d 34 b7 12 bd fd 21 97 bd
       -0.0393321 0.054468635 -0.035819247 -0.073795296
000230 a2 65 0f 3d b8 f8 e1 bb 1d 9c 79 bd 34 c8 45 bb
       0.035009034 -0.0068961047 -0.060939897 -0.0030179145
000240 48 11 db bc a7 4a 91 3d ab b3 af 3d 55 67 15 bd
       -0.026741639 0.07094317 0.08579191 -0.0364755
000250 9c 16 0d bd b6 22 47 bc db 79 4a bc 54 00 ff bc
       -0.03444539 -0.012154272 -0.012358154 -0.031128086
000260 b1 fc bb bc 62 cb 07 3d 1d 4e 7b bc 7e 9e 5a 3d
       -0.022947641 0.033152945 -0.015338448 0.053373806
000270 8d c0 40 3d 31 5d 57 bd a0 32 84 3d 8f 0b a6 bc
       0.04705863 -0.05257911 0.064549685 -0.020269183
000280 cb 1d da 3c fa 07 10 bc 1f 58 3d bc 12 d2 4b 3d
       0.026625535 -0.008790964 -0.011556654 0.049760886
000290 15 24 9c 3b 12 59 08 3d 60 45 e6 ba a8 ab 51 3c
       0.0047650435 0.03328807 -0.0017568283 0.012797274
0002a0 0a a8 87 bc 30 cb d4 bc 05 26 3c bd d5 7e d8 bc
       -0.01655962 -0.025975794 -0.045934696 -0.026427666
0002b0 62 cb 20 bd cc 46 ee bc 04 98 33 bd 6b 17 c0 bc
       -0.03925646 -0.029086493 -0.043846145 -0.023448667
0002c0 64 30 88 bd 59 b1 b5 bc 98 a0 c5 3c 9c 69 85 3c
       -0.06649855 -0.022179293 0.024124429 0.01628571
0002d0 99 d7 f3 3c a0 0b 47 bc 02 cd ca 3c 16 19 95 bd
       0.02976589 -0.012148768 0.024755958 -0.072801754
0002e0 a4 95 95 bd 36 f7 54 3c 54 88 8b 3c 10 37 28 3c
       -0.07303932 0.012998393 0.01703278 0.010267034
0002f0 34 11 f4 3a f3 8c e7 bb 67 6e 01 bd 87 2e a0 bd
       0.001862085 -0.007066363 -0.03159943 -0.078213744
000300 68 88 41 3d b5 5e 9e bc 27 6e 85 bd 48 62 5d bd
       0.047249228 -0.01933227 -0.065151505 -0.054048806
000310 41 c0 37 3d 01 24 13 3d 13 b3 2b bd 47 50 15 bd
       0.044861082 0.035923008 -0.041918825 -0.03645351
000320 00 28 43 bd 4a 91 70 bd 8e c0 22 3d 52 71 73 bd
       -0.04764557 -0.05873231 0.039734416 -0.059434243
000330 58 02 4f 3d eb 88 45 3d 51 7e 0a bd cc b4 5c 3d
       0.050539345 0.04822628 -0.03381187 0.05388336
000340 5a 01 a0 bc c8 a0 a2 3c 1d f0 fc bc c7 8d c3 bc
       -0.019531894 0.019852057 -0.030876214 -0.023871316
000350 b2 90 ae bc fa e9 ce bc 43 c0 14 3d cd c3 41 3c
       -0.02130923 -0.025258053 0.036316168 0.011826468
000360 fd ca 02 bd de 8e 39 3c bd fd 04 bd 29 fa e7 3c
       -0.031931866 0.011325566 -0.032468546 0.028317528
000370 37 2d 1d 3d d6 07 b0 3b 43 10 96 3c bd a8 a6 bc
       0.0383732 0.005372028 0.018318301 -0.020344133
000380 8c 08 ae bb 01 fa 8d 3c 37 39 04 3d 87 45 13 bc
       -0.0053110775 0.017331125 0.032281127 -0.008988745
000390 ba aa 87 3d 33 fe 31 bd 48 37 12 3d e4 ac bf 3c
       0.066243604 -0.043455314 0.03569725 0.02339787
0003a0 0a 28 6a bd e1 77 13 3d d9 8e 1e bd d1 85 0c 3c
       -0.05716709 0.036002997 -0.03871045 0.008576826
0003b0 89 2d 99 bc 12 2e 30 bd d1 9f 12 bd 3c 49 cf bc
       -0.01869847 -0.043012686 -0.035796944 -0.025303476
0003c0 9f ab 3a bd 61 7b 4e 3d 29 42 3b 3d f9 f1 54 bd
       -0.045573827 0.050410632 0.045717392 -0.051988576
0003d0 f6 66 a6 3c 5c 8c 6d 3c b0 fe b7 3b 11 4c 38 bd
       0.020312767 0.014498796 0.005615078 -0.044994418
0003e0 b9 0e 47 bd f7 eb 20 3c 0c 2a c4 bb 2f 6d 9b 3c
       -0.048598025 0.009821883 -0.0059864577 0.018972961
0003f0 fa 10 18 bd 24 be d9 bc d9 3b 81 3a 6a 31 83 3d
       -0.037125565 -0.026579924 0.0009859755 0.06405909

conv.0.bias f4 [128]
000000 05 e4 09 bd 65 57 6d 3d 4e 06 1b 3c dd 42 10 bd
       -0.033664722 0.057944674 0.009461952 -0.035220016
000010 83 b8 22 3d 3d 50 c3 bc aa 50 57 bd 04 b4 ff bc
       0.039726745 -0.023841972 -0.05256716 -0.031213768
000020 da 95 6f bd 3b ed 3e 3d 71 c9 91 bd d8 6a c6 bc
       -0.05849252 0.04661296 -0.071185 -0.024220869
000030 0c 52 63 3d 78 ab 42 bd 36 da 8b 3c ea 1a 17 3d
       0.055498168 -0.047526807 0.017071825 0.0368909
000040 b7 3f 3b bc 92 d1 89 bc 17 2e 07 3d ae 22 1a bc
       -0.011428765 -0.016823564 0.03300294 -0.009407682
000050 79 10 60 bd d7 67 45 3b 6c 82 3e bc ca fd 2c 3d
       -0.05470321 0.0030121708 -0.011627775 0.04223422
000060 bb 67 0e bd ad 54 3e bc 87 59 a0 3c e6 76 50 3d
       -0.034766894 -0.011616868 0.01957394 0.05089464
000070 e2 ea 1b bd c9 69 39 bd f5 db 77 bd 29 4e 92 b9
       -0.0380658 -0.0452669 -0.0605125 -0.00027905524
000080 22 61 8c 3b 18 38 01 3b 43 aa a5 3c 8d d7 82 bc
       0.00428404 0.0019717272 0.020222789 -0.015971923
000090 1e a0 19 bd 07 f8 33 bd 41 4a 23 bd 67 b8 74 bc
       -0.037506215 -0.04393771 -0.039865736 -0.014936543
0000a0 ad c9 02 bc da 0c 7e 3c 71 68 d8 3c 33 42 6d 3d
       -0.007982654 0.015505994 0.026416989 0.05792446
0000b0 74 df 82 3c 1c 81 46 bd 70 e6 57 bc 16 40 a5 3c
       0.015975691 -0.048462972 -0.013177499 0.02017216
0000c0 94 7f 72 bd 4a ed 02 3c 79 e4 1e 3d d4 ec 13 bc
       -0.0592037 0.007991144 0.038792107 -0.009028632
0000d0 a2 9d 1d 3d c1 2b cf bc b9 17 44 bd 13 21 5b 3d
       0.03848041 -0.025289418 -0.047874186 0.05349834
0000e0 92 97 b5 bc ae 8a 63 bd e5 15 60 bc b4 5d ab bc
       -0.022167 -0.055552177 -0.013677095 -0.020918705
0000f0 11 80 f4 3c 96 c8 51 3d a3 57 72 bc fe 33 22 bd
       0.029846223 0.051216684 -0.014791402 -0.039600365
000100 e7 e9 90 bc 0c b5 29 3d a7 7d 43 bd 30 d1 27 3d
       -0.017689658 0.041432425 -0.047727253 0.04097098
000110 e4 e7 4f 3d 51 20 22 bd 56 32 45 bd 56 bf 4d bd
       0.050758258 -0.0395816 -0.048143707 -0.0502313
000120 1b 3a 9e bc 94 2c 3c bd ee 60 b2 bc ab b2 30 3d
       -0.019314816 -0.04594095 -0.021774735 0.04313914
000130 7f fb 38 bc da 7a f7 3b 9f 9a 40 3d d3 59 1b bd
       -0.01129043 0.007552487 0.04702246 -0.03792746
000140 cb 01 70 3c 8f c4 45 3d 38 c8 d2 3a 6a 28 0d bd
       0.014648865 0.048283156 0.0016081398 -0.03446237
000150 57 21 97 bc db f5 fe 3c 56 bf 84 3d 2f 1d 5a bc
       -0.018448515 0.031123092 0.06481807 -0.013312622
000160 65 ef b9 ba 40 d7 01 3d ab ac ce 3c d2 7c 84 bd
       -0.0014185725 0.03169942 0.025228819 -0.0646912
000170 7d 7d b0 bc e3 78 3c 3c 2d b5 f1 3a d8 f0 38 3d
       -0.021544212 0.011503431 0.0018440835 0.04515156
000180 76 d1 58 bd 02 e8 ac bc e0 89 30 bd 08 a4 5b bc
       -0.052934133 -0.021106724 -0.043100238 -0.013405807
000190 af 61 bc bc 17 b8 27 bc 35 40 92 3c a4 f1 94 bc
       -0.022995798 -0.0102367615 0.017852882 -0.01818163
0001a0 92 77 16 bc 0d 04 50 bc 06 96 47 3d be 66 a7 3c
       -0.009183781 -0.012696278 0.048727058 0.020434733
0001b0 0e 46 89 bc 91 33 18 bc 2b 9a 0c 3d 4b 73 00 bc
       -0.016757037 -0.009289638 0.034326714 -0.007839988
0001c0 40 27 6c ba 14 da af bc 8c aa c3 bc 92 13 6f 3d
       -0.0009008534 -0.021466292 -0.023885034 0.058368273
0001d0 f7 c4 9a bc 0d ff 21 3d 69 73 ca bc 97 99 ce 3b
       -0.018892748 0.039549876 -0.024713235 0.0063049304
0001e0 d9 8f c6 bc 87 85 2d ba e1 56 3a 3d 6a 70 ac bc
       -0.024238514 -0.00066193234 0.04549301 -0.021049697
0001f0 72 6f 11 bd 98 47 ff bb 24 8b 4a bd a6 72 cb 3c
       -0.035506673 -0.007790517 -0.0494491 0.024834942

conv.3.weight f4 [256, 128, 3]
000000 e2 ff 19 bd c5 2f a4 bc ca d3 83 bc 6b 91 06 bc
       -0.037597544 -0.02004231 -0.0160922 -0.008213381
000010 63 2f d8 ba 40 ba 00 3d 7a f8 76 bc e4 4a fd 3c
       -0.0016493615 0.03142762 -0.01507389 0.0309195
000020 71 c3 12 bd 2b a8 b3 39 7e a8 40 3b 88 df 12 3c
       -0.03583092 0.00034266835 0.0029397304 0.008964427
000030 41 9e 3f bd ae d6 b2 bb 30 96 86 3c cb a4 e1 3b
       -0.046781782 -0.0054577207 0.016429037 0.0068861
000040 38 33 00 3c 13 b5 bd 3c a8 09 47 3c 04 0c 1c 3c
       0.0078247115 0.023157632 0.012148298 0.009524349
000050 7f 57 d2 bc e9 28 25 3c 21 1f 74 bc fb f1 f8 bc
       -0.025676487 0.0100805545 -0.0149 -0.030388823
000060 4f e2 89 bc 4e fe fa 3b 06 a9 73 bd bf 7c 83 bc
       -0.016831545 0.00765971 -0.059487365 -0.016050695
000070 91 12 29 bb a2 1d 31 bd b7 e6 ec bb 54 2f aa b9
       -0.002579842 -0.04324115 -0.007229652 -0.0003246019
000080 a3 22 13 bd 25 ce 09 bd c9 9f 95 3d 1c f5 7a 3c
       -0.035921704 -0.03364386 0.07305867 0.015317228
000090 66 5e 00 3b a4 78 44 3c 1e 32 65 bb 1d 9b bd bc
       0.0019587516 0.011991654 -0.00349725 -0.023145253
0000a0 5a f1 16 bc c2 cb 45 bc 8a 26 92 39 d4 82 8c 3c
       -0.009212816 -0.012072505 0.00027876004 0.017152227
0000b0 aa b8 00 3d b6 ee c0 bc e5 2c f3 bb 48 c7 3b bb
       0.03142611 -0.023551326 -0.0074211233 -0.0028652716
0000c0 b9 58 6d bc 2f ee f6 3c 53 3e 11 bd a2 b6 84 bc
       -0.014486485 0.030142872 -0.035459828 -0.016200367
0000d0 a6 43 56 3a 3c 6a 9e 3b 48 e7 f8 bc 0b e2 06 3d
       0.00081735326 0.0048344415 -0.030383721 0.032930415
0000e0 8b 66 5c 3c b5 ff 26 bd 11 25 62 bd 23 bd 99 3a
       0.0134521825 -0.040771205 -0.05521113 0.0011729341
0000f0 d8 84 60 3d dd 18 22 3c 0f 56 9d 3c f0 d6 4c bd
       0.05481419 0.009893623 0.019206075 -0.050009668
000100 95 0f 90 bc be 88 29 3d 07 41 02 3d cf 75 a5 3c
       -0.017585555 0.041390173 0.031800296 0.020197777
000110 18 ef 4a 3c b6 3f aa bb 59 c2 15 3b cc d3 52 bc
       0.012386106 -0.005195583 0.0022851436 -0.012867879
000120 b1 6a f5 bc 46 f0 69 bc 32 d2 cf 3c 67 ff 3f 3b
       -0.029958101 -0.014278477 0.025368784 0.0029296519
000130 6a 26 0a bb c1 ce 27 3d cd cf 10 bd 72 d7 39 bc
       -0.0021080025 0.04096866 -0.035354424 -0.01134287
000140 82 80 b7 bc d1 81 1f 3b bb b0 00 bd 9a 60 3c bd
       -0.022400144 0.0024338851 -0.031418543 -0.045990564
000150 62 2e 18 3d 6c 05 a4 3c 1e 79 e8 3c 54 5f ed ba
       0.03715361 0.020022117 0.028378066 -0.0018110075
000160 98 d5 0b 3c c5 a1 46 3d 90 51 4d 3d 3e f1 12 3d
       0.008534811 0.04849412 0.050126612 0.035874598
000170 79 28 d0 bc 0d fc b4 bc e7 a6 21 bd 5e cb 45 3d
       -0.025409924 -0.022092843 -0.03946581 0.04828965
000180 9c b9 be 3c 8a 8e fd bc b9 05 43 bd 06 32 c7 b9
       0.023281865 -0.030951757 -0.04761288 -0.00037993508
000190 69 65 78 3b 6f 67 8b 3c 37 9c c5 3c a3 84 d3 bc
       0.0037902242 0.017017094 0.02412234 -0.025820082
0001a0 fc 58 77 bc c9 74 a2 ba 21 90 5e 3c 83 98 cc 3b
       -0.015096899 -0.0012394424 0.013584168 0.0062437668
0001b0 36 5e c9 ba 46 cd 99 3b 77 b2 30 bd 5d fa 8c 3c
       -0.001536316 0.00469366 -0.043138947 0.017209226
0001c0 80 6a 46 bd d8 f3 97 3c a2 2d 42 bd f9 4a 06 3d
       -0.04844141 0.018548891 -0.0474068 0.032786343
0001d0 5a 2d f5 3c 88 90 52 3d e7 4a 36 bd 4e 9f 52 3c
       0.029928852 0.051407367 -0.044505026 0.012855364
0001e0 51 23 20 3d 7e 01 2b 3d 4e e7 fe bc 7c f0 4a bd
       0.03909618 0.04174947 -0.031116154 -0.04954575
0001f0 45 f1 58 bc 5f e3 38 bd f8 29 3f bd 49 e8 57 3d
       -0.013241117 -0.045138713 -0.046670884 0.05271176
000200 dc 88 2e 3d f2 a1 94 bc 5d 04 a1 3c 64 cb 3e 3d
       0.042610988 -0.018143628 0.0196554 0.046580687
000210 55 fd b0 3a 63 d8 b6 bc b5 e5 09 3d 98 23 31 3c
       0.0013503233 -0.022319978 0.03366633 0.010811709
000220 65 7a f1 3c 9a 7b 11 bd 94 4c 77 bd 5e eb 58 3d
       0.029477308 -0.035518266 -0.060375765 0.05295884
000230 69 b4 0a 3d f1 85 fb bb ca a9 24 3c f5 2e 0f bd
       0.03386346 -0.007675879 0.0100502465 -0.03495689
000240 be cc 21 3d 06 09 26 bc 97 7c 35 bd be 39 42 38
       0.039501898 -0.010133987 -0.04430827 4.630698e-05
000250 0b 6e a9 3c 5a 87 da bc dc 10 08 bb 55 a1 b4 bc
       0.020682355 -0.026675869 -0.0020762002 -0.022049585
000260 03 1a ed bc 40 c3 14 bd 75 7b d8 bc c5 bf 5f bd
       -0.028943067 -0.036319017 -0.026426056 -0.054626245
000270 0a 36 22 3d 9a 64 2f 3d 2b 1d b7 3c 1d 2b 1a 3d
       0.039602317 0.04282055 0.022352776 0.037638772
000280 a7 c2 48 3c 03 40 dc bb 47 92 dc 3c 09 3f f4 3a
       0.01225344 -0.006721498 0.02692522 0.0018634509
000290 d0 23 ad bc b9 e0 86 3c ad 38 22 bd b0 04 0c 3d
       -0.02113524 0.016464578 -0.03960483 0.034184158
0002a0 b2 38 e5 bc 97 bd 8c bc d5 5f 01 3c 5c dc 47 bd
       -0.027981136 -0.017180247 0.007896383 -0.048794135
0002b0 34 1a 81 3c 1c 06 b4 bc c0 14 4c 3b a2 9d 07 3d
       0.015759565 -0.02197557 0.0031140298 0.033109315
0002c0 d7 e8 61 ba 0a 9f 81 bc f4 52 7d 3b ec c4 26 3d
       -0.00086177647 -0.015822906 0.003865418 0.040715143
0002d0 de 02 95 3c 56 d1 16 bd e3 de 34 3d aa 44 50 bc
       0.018189844 -0.036820732 0.044157874 -0.012711683
0002e0 55 a1 20 bd 65 b4 10 bd 27 91 ab ba 09 d7 21 bd
       -0.03921636 -0.035328288 -0.0013089523 -0.039511714
0002f0 d8 7c 9f bc e1 9f 07 3c fe 4a 74 bd 8a 4f f7 bc
       -0.01946871 0.008277864 -0.05964183 -0.030189294
000300 ba 86 db bb 4b 7a bf bc 3d 86 75 bd 3c 45 8a bc
       -0.0066994103 -0.023373744 -0.059942473 -0.016878717
000310 5b 6d 3c bd 39 6e 02 3c 44 98 05 3d dd 34 05 bc
       -0.046002727 0.007960849 0.032615915 -0.008130279
000320 64 61 2f bd f7 71 35 bd 97 0b 54 bc 39 02 0d bd
       -0.04281749 -0.04429814 -0.012942216 -0.034425948
000330 4b e7 c5 3c 81 a4 c0 3c 8e ae c4 3b f0 41 29 3d
       0.02415814 0.023515942 0.006002254 0.04132265
000340 e5 3c 80 3c 69 e0 18 3d 6f 7c ae 3c 3d 37 0b 3c
       0.015654037 0.03732339 0.021299569 0.008497057
000350 b0 0a eb bc 0e 50 2f 3c 33 b3 8f bb dc a9 fe 3c
       -0.02869162 0.010700239 -0.004385376 0.031086855
000360 f0 80 83 3c 78 0f 7a bc 44 83 e3 3c 88 06 24 3d
       0.016052693 -0.015262477 0.027772553 0.04004529
000370 a5 ac 0c bd 3b 7f 11 3d df c9 27 3c 92 91 39 3c
       -0.034344334 0.035521727 0.010241001 0.011326211
000380 26 c9 50 bc e9 6b af bc 63 18 98 bb 4c be af 3c
       -0.01274327 -0.02141376 -0.004641579 0.021453045
000390 d7 b2 8e bb e9 82 c0 3c e2 5d 15 bd 35 31 35 3c
       -0.0043548155 0.023499923 -0.036466487 0.011059095
0003a0 0e a0 da 3c 68 5c c8 bb e9 17 78 3c 2b 8d 64 bd
       0.026687648 -0.0061145313 0.015142419 -0.05579869
0003b0 73 cd b7 bc a9 6b 2c bc 87 83 03 bd 09 05 7d bc
       -0.022436833 -0.010523715 -0.032107856 -0.015443095
0003c0 4b 0c 3e 3d b6 76 89 3b 86 c1 b3 bc 77 24 9c 3c
       0.046398442 0.0041950596 -0.021942865 0.019060357
0003d0 43 de 16 bd 23 ce e3 bc c8 f6 98 3b 69 56 09 bd
       -0.03683306 -0.027808255 0.0046680905 -0.033529673
0003e0 0e 5f c3 bc 2a ab 8c 3c 02 10 8f 39 93 48 2f bd
       -0.023849037 0.017171461 0.00027287012 -0.04279382
0003f0 70 6d 19 3d 27 f7 05 3a f5 a7 82 bc 26 3b 3d 3d
       0.037457883 0.0005110376 -0.015949229 0.046198986

conv.3.bias f4 [256]
000000 03 76 18 bd b9 55 93 3c 10 f2 4e bc c1 86 16 3c
       -0.03722192 0.017985212 -0.012630954 0.009187401
000010 fa 8f 11 3d a5 96 63 3c 43 a6 73 bc a6 26 09 bd
       0.035537697 0.013890897 -0.014871183 -0.033484124
000020 56 7a ea bb 34 8c 8f bb d1 fc e8 3c 73 28 c7 ba
       -0.007155697 -0.004380727 0.028440865 -0.001519455
000030 ff 58 ab 3c a2 f9 82 3c 0b 88 c8 3b 8f 13 12 bd
       0.02091646 0.015988175 0.006119733 -0.035663184
000040 6f cc 88 3b 9b 8e 33 bb 24 e5 a8 3c 67 9a 83 bc
       0.004174761 -0.0027398232 0.020617075 -0.016064836
000050 68 ca 07 bc dd 16 7a 3c fd f8 54 3d 2d 0a b6 ba
       -0.0082880035 0.01526424 0.051995266 -0.0013888531
000060 f6 d6 27 bd f0 4b 14 bd f3 cd c3 3c dd c9 13 bd
       -0.040976487 -0.036205232 0.023901915 -0.036081184
000070 0b 37 d5 bb 27 d7 37 3d 5c f4 c0 3c 10 6d be bc
       -0.006506806 0.04488292 0.02355402 -0.023245364
000080 ff b5 2a bd cf c9 4b 3c 82 73 62 bb e6 b7 02 bd
       -0.04167747 0.012438252 -0.0034553711 -0.03191366
000090 80 df 24 3c 43 a0 a8 bc 95 1f 9d 3c d4 97 e3 3d
       0.010063052 -0.020584231 0.019180099 0.11112943
0000a0 52 42 2a 3d 25 06 46 bd d7 08 61 bd b5 2b f8 3b
       0.041567154 -0.048345704 -0.05494007 0.0075735697
0000b0 1d d5 d2 bc 6f 91 da bc a7 03 dc bc 0b 72 f1 3b
       -0.025736386 -0.026680676 -0.02685721 0.0073683313
0000c0 89 b3 2d bd 24 a1 ca bc 87 47 ed 3c 02 a9 3e bd
       -0.042407546 -0.024735041 0.028964771 -0.046547897
0000d0 10 04 28 bc 17 d4 75 3c 76 4c 7a bc ee be fd 3d
       -0.010254875 0.015004179 -0.015277019 0.123899326
0000e0 95 9e 9e 3c 79 5b 85 bc 6a dc 16 3d 0a e0 10 3d
       0.019362727 -0.01627897 0.036831297 0.03536991
0000f0 f1 df 28 bd b6 e2 4c bd a7 d3 fa 3c 5b c2 6a bd
       -0.041229192 -0.050020896 0.030618502 -0.057314258
000100 66 56 22 3d 96 a1 bf 3b 11 57 4e bd f0 12 e9 bc
       0.039633177 0.00584812 -0.050376 -0.028451413
000110 76 bf 4f 3c 21 68 3e 3d fa 00 80 bc 27 2f 18 bd
       0.012679925 0.046486024 -0.015625466 -0.037154343
000120 a5 78 e3 bc d0 aa 02 bc 70 7a 51 3d 22 25 a9 bc
       -0.027767489 -0.007975295 0.051142156 -0.02064759
000130 95 a1 2c bd 46 5c 6f 3c 2f e8 83 3d 83 fb f0 3b
       -0.042146284 0.014609402 0.0644077 0.0073542013
000140 05 c5 08 bd 93 52 a1 bc 97 99 49 3c 8a a9 18 3c
       -0.033391017 -0.019692695 0.012304685 0.009317765
000150 86 dd ba bc 34 a0 57 bd cc 2a 95 3b 56 eb 07 bb
       -0.022810709 -0.052643016 0.004552221 -0.0020739636
000160 ce 3a 00 bd 57 b9 ad 3d 39 a1 4c 3d 70 26 d4 bc
       -0.03130608 0.084826164 0.04995844 -0.025897235
000170 0a 3d ba 3a 13 55 04 3c 9d 85 e5 bb be 7e 2a bc
       0.0014208865 0.008076924 -0.0070044533 -0.010406194
000180 66 c4 ba 3b aa ff 5c 3b 9f 79 29 3c a6 ec 07 bd
       0.005699682 0.0033721724 0.010343938 -0.03318467
000190 68 13 9e 3c 59 dc 0e bc 4b 22 9a 3d 03 0e fd b9
       0.019296363 -0.008719527 0.07526072 -0.0004826636
0001a0 2d 2b 00 bd 53 fe 9b 3c f0 f8 46 3c 9f 2e 89 b8
       -0.031291176 0.01904217 0.012144312 -6.541353e-05
0001b0 81 b3 b8 3c 8c 23 1c bb 20 31 17 bd a6 a8 1b bc
       0.022546532 -0.0023824899 -0.036912084 -0.009500658
0001c0 d8 76 6a bd 66 7c c4 3c 69 fa 1c bd 58 ab da bc
       -0.057242244 0.023985099 -0.038324747 -0.026693031
0001d0 5f 08 fe 3c a1 63 8d 3c 52 13 f8 3c bc e2 a6 bc
       0.031009851 0.01725942 0.03028265 -0.020371787
0001e0 8f 1b 09 bd 4e eb b6 3c c8 b7 c5 3b 33 11 07 3d
       -0.033473548 0.022328999 0.0060338713 0.032975387
0001f0 c6 2f f2 3c 08 b3 48 bd c7 7b 52 bd 61 8c 1c bd
       0.029563796 -0.048998863 -0.051387575 -0.038219813
000200 53 bb 54 bd f0 19 a7 3c 32 64 0a bd c4 2a 18 bd
       -0.05193646 0.02039811 -0.03378696 -0.03715016
000210 b0 d6 b5 3c a5 fb a1 bc 4b b9 46 bc 9f fc 10 3d
       0.022197098 -0.019773314 -0.012129138 0.03539717
000220 32 88 ca 3b 0e 95 08 bd 76 4a 21 bd 78 b1 24 3c
       0.0061807865 -0.033345275 -0.039377652 0.0100520775
000230 cf ae 8d 3c b5 12 ce 3d 38 be 3a bd 28 07 a6 bb
       0.01729527 0.10062162 -0.045591563 -0.005066771
000240 9b 2b db 3c 7f 0d a1 bc a4 66 b4 bb 7b 33 e4 3b
       0.026754191 -0.019659756 -0.0055054 0.0069641448
000250 8d 7e 47 bb 93 ca ec 3c 6b 3f ac 3c 8e b6 19 3d
       -0.003044042 0.028905189 0.021026334 0.037527613
000260 22 a7 e9 3b 23 15 fa bc f5 88 de bc c3 2d 0e bc
       0.0071305195 -0.030527657 -0.027164916 -0.008677903
000270 a1 99 d8 3b 54 61 d6 3d 53 88 1b bd 88 c7 1b ba
       0.006610111 0.104677826 -0.037971806 -0.0005942513
000280 bd 50 c3 bb a2 4a ee 3b ab 8c c5 3c 7a ff 37 bc
       -0.0059605525 0.0072720805 0.024114927 -0.011230344
000290 24 af 9d bc 61 1d 42 bd 64 fa e1 bb 3c d5 fa bc
       -0.019248553 -0.0473913 -0.006896304 -0.030619256
0002a0 e6 d8 a4 3b f8 5a 8e 3c 8f bc 7b bc 31 f3 76 3c
       0.005030739 0.017377362 -0.01536478 0.01507263
0002b0 a4 ba f2 3c 11 be b6 3d e7 b1 1b bd da 23 d2 38
       0.029630013 0.08922971 -0.038011458 0.00010020258
0002c0 ff ef 95 3c eb ba 18 bd ce e7 e3 3b 8c 09 8c bc
       0.018302916 -0.037287634 0.0069551235 -0.017094396
0002d0 a2 72 56 3c 8c 15 5b 3c b1 1a 2e 3d 25 d2 1b 3d
       0.013088854 0.013371836 0.042505924 0.038042206
0002e0 a4 a7 39 bd ed db 54 3d d6 50 aa 3c f3 e5 86 bc
       -0.04532589 0.05196755 0.020790499 -0.01646707
0002f0 f3 14 13 bd 63 c0 30 3d c0 fb fb bb e6 a9 da bc
       -0.03590865 0.043152224 -0.007689923 -0.026692342
000300 14 24 3e bd 72 77 e4 bc 7a 09 ca 3c 18 c1 dd 3c
       -0.046421126 -0.027888987 0.024662722 0.027069613
000310 fd b6 bc 3c 09 a6 81 3c 0a 1a 7f 3c 9a fc d0 3a
       0.023036474 0.015826242 0.015570173 0.0015944422
000320 58 e0 0c 3c ef 79 f6 bc 28 71 ed 3c 1e aa b0 3c
       0.00859841 -0.03008744 0.028984621 0.021565493
000330 1f c0 32 bd 4d b7 e6 3c 26 3d 93 3c b5 5b 26 ba
       -0.043640252 0.028163576 0.017973494 -0.0006346063
000340 c3 57 34 3d 4b ba 53 bc 14 1d e5 3c 30 33 2a bd
       0.04402901 -0.012922834 0.027967967 -0.041552722
000350 e7 a7 db bb 5c da 0c 3c 45 ff 8a bc b0 6e 93 3c
       -0.006703365 0.008596983 -0.016967425 0.017997116
000360 28 1f e7 3c 3d 50 94 3b 0e a6 51 bd b2 25 b4 3c
       0.028213099 0.0045261667 -0.051183753 0.02199063
000370 8e 0d 5f 3c 16 c0 b9 b9 6d cf a6 3b b0 4e 2d 3d
       0.0136140715 -0.00035429065 0.005090645 0.04231137
000380 fb 21 d4 bc 0c 35 33 bd 6c ef bd bb dc 95 60 ba
       -0.02589511 -0.04375176 -0.0057963636 -0.00085672527
000390 a5 22 17 bd c9 2c 26 3d cb c0 c1 3c 55 12 77 bc
       -0.036898274 0.040570054 0.023651501 -0.015080054
0003a0 8c 85 f3 3c 48 76 2a 3c d7 65 e5 3a 8e 60 d2 3c
       0.029726766 0.010404177 0.0017501664 0.025680806
0003b0 ba c2 9d bb 17 d8 15 bd c5 cc 05 bd 54 70 f9 bc
       -0.004814473 -0.036583032 -0.032665987 -0.03044907
0003c0 fc 7f 27 bd 98 63 91 bc 2d c2 5d bd e8 6c 29 bd
       -0.04089354 -0.017747685 -0.05414026 -0.041363627
0003d0 d8 d8 1d bd d7 79 a1 3c e0 34 69 bc b1 36 85 bc
       -0.038536876 0.019711418 -0.014233798 -0.01626143
0003e0 91 d7 08 bd 3b 4b 9a 3a 14 c5 bd bb 1d 05 13 3d
       -0.033408705 0.0011771688 -0.005791316 0.03589355
0003f0 43 5a 2e bd 98 01 34 bb 7e 21 99 3b 62 e5 21 3d
       -0.04256655 -0.002746677 0.004673182 0.039525397

fc.weight f4 [2, 256]
000000 c9 23 59 3d 16 03 6b bd 59 4d 06 3d 49 f6 da 3c
       0.053012643 -0.05737599 0.03278861 0.026728766
000010 2d fa 83 bd 74 fe 93 bd 1b b1 98 3c b5 54 eb 3c
       -0.064442016 -0.072262675 0.018639138 0.028726915
000020 80 21 e8 bc 89 97 21 3d 9c 2b a8 bd 58 7e 53 3d
       -0.028336287 0.039451156 -0.08211443 0.051634163
000030 80 08 34 3d 42 4d 42 bd 10 91 f3 3c f7 42 08 bd
       0.04395342 -0.04743696 0.029732257 -0.033266988
000040 19 b5 50 3d 82 44 0b 3c 3a 97 de 3c ad e1 b6 bd
       0.05095396 0.00850022 0.02717172 -0.08929763
000050 66 47 1e bd e8 af 8d bd 49 2b 79 bd 3f 3c 82 3d
       -0.03864231 -0.06918317 -0.060832296 0.06359147
000060 d0 17 55 3d f7 c8 bc bc 4e 3d 32 bd da c1 30 ba
       0.052024662 -0.023045046 -0.043515496 -0.00067427533
000070 55 02 41 3d 2b 3a f6 3c 95 df 29 bd 4c a4 f3 3b
       0.047121365 0.030057034 -0.04147299 0.007435357
000080 fb 5c b3 3c 18 3f 74 ba d0 3a fe bb 97 90 26 bd
       0.021894922 -0.0009317263 -0.007758476 -0.040665235
000090 95 fe 32 3a 4c a4 1f 3d b4 11 87 bb cf 87 84 3a
       0.0006828097 0.038975045 -0.0041219834 0.0010111275
0000a0 e6 bb 22 3d 25 f3 7c 3d ca a3 be bc 91 80 2e 3b
       0.039729975 0.06175532 -0.02327146 0.0026626925
0000b0 58 78 5b bd 60 50 67 3d 6d 91 e2 bc 2a 0e 3a 3d
       -0.053581566 0.056473136 -0.027657235 0.045423664
0000c0 0a 3a dd bc da 2e b8 3c d3 0a d6 ba fb 4b eb 3c
       -0.027005214 0.022483278 -0.001633013 0.028722754
0000d0 2f 7a 45 3d 30 6d 3b bb 2f fc 89 3d 52 24 57 3c
       0.048212226 -0.0028599016 0.06737553 0.013131218
0000e0 52 46 97 bd 13 f9 26 3d 9d de 8c bc 7a 02 97 bd
       -0.073864594 0.04076488 -0.017195994 -0.07373519
0000f0 eb a0 53 3d 79 04 21 bd c2 40 21 bd a4 c7 63 3d
       0.051667135 -0.039310906 -0.0393684 0.055610314
000100 60 0e 58 bc 2b 1d 5d 3d 12 78 00 bd 9b 71 e5 3c
       -0.013187021 0.053982895 -0.031364508 0.028008273
000110 fb 12 5f bd 44 cd 93 3d 04 62 9b 3c 08 26 01 3d
       -0.05446146 0.07216886 0.018967636 0.03153041
000120 9a 2f b9 bd a6 d6 5d bd 38 6e e5 bb d7 d6 7f bd
       -0.090422824 -0.054159783 -0.0070016645 -0.062460747
000130 c4 e2 bd bd a5 11 31 3d ff eb 09 bd fc 6a 5c 3d
       -0.09271768 0.043229718 -0.03367233 0.053812966
000140 a7 a2 b0 b9 e2 6b 8a 3d b1 86 f8 3a 77 1f 77 bd
       -0.0003369052 0.06758858 0.001896104 -0.06033274
000150 35 6e f0 bb 5b de d2 3c d4 f3 07 bd 47 3b 12 3c
       -0.0073373565 0.025740793 -0.033191517 0.008925266
000160 5e c5 8c 3d de 8b 6d bb 19 04 fb bc 01 dd 68 bd
       0.06873582 -0.0036246697 -0.030641602 -0.05685139
000170 4d c3 f2 bc 7c e8 8f 3d c3 e2 05 bd 82 58 8a bd
       -0.029634142 0.07026765 -0.03268696 -0.06755163
000180 27 88 a4 bc eb 87 6f 3d 4b ad 82 3d 12 dc 43 3d
       -0.020084454 0.05847923 0.06380709 0.047817297
000190 a2 09 5f bc 0d de 1e 3d 32 79 fb bc b2 e3 2e bc
       -0.0136131365 0.038785983 -0.030697439 -0.010674404
0001a0 68 01 2d 3d cc 82 8c bc ac 26 48 3c 75 3a c8 bc
       0.04223767 -0.017152213 0.012216251 -0.024441937
0001b0 ed 78 4d 3d 4a 2d 66 bd c1 7c 21 bd 1a cc 0d 3d
       0.050164152 -0.056195535 -0.039425615 0.034618475
0001c0 6c dd 59 bd 49 b7 6a bd 6b 6d bb 3c c0 1d 61 bd
       -0.05318968 -0.0573037 0.022879323 -0.054960012
0001d0 3b 72 2c 3d 6b ad bf bc 48 18 9b bd ec 87 a5 bd
       0.042101126 -0.023398122 -0.07572991 -0.08082566
0001e0 cd 99 a3 3c 37 1e 85 3d b0 45 10 3d d1 2f b3 bc
       0.019970799 0.06499904 0.03522271 -0.021873387
0001f0 f9 d6 ff bb fc b4 bc bc b9 0c 4c bb 37 6b 50 bd
       -0.007807609 -0.023035519 -0.0031135513 -0.050883498
000200 29 b8 b6 bb 88 ad 92 3d 2a c3 5d bd b1 4e 11 3d
       -0.005576153 0.07162005 -0.0541412 0.035475437
000210 2e 87 dc bd 84 af 2e 3d f8 5f b8 bd ad cd 88 3d
       -0.10767971 0.042647853 -0.090026796 0.066798545
000220 31 c0 34 3d 38 1a 6a bc 67 7b 0a 3d e3 c8 16 b9
       0.0441286 -0.014288478 0.033809092 -0.00014379951
000230 85 3b e9 3c 36 29 d7 3c 31 04 68 3d b1 04 16 3d
       0.028470764 0.026264768 0.056644622 0.036625568
000240 0e 34 03 bd 45 bd 34 bd 1f 88 09 bd 1f d2 90 bd
       -0.032032065 -0.044125814 -0.03357708 -0.070713274
000250 93 59 33 bd 5e 51 40 3d ff 4b 52 3d e9 2c 92 3c
       -0.043786597 0.046952598 0.051342007 0.01784368
000260 47 2a 4e 3d f6 c0 64 bd 99 5f 30 bd a5 42 16 3d
       0.050333288 -0.055848084 -0.04305992 0.03668465
000270 63 91 74 3c 93 64 1b 3d cd d9 e5 3c 57 bf 33 bd
       0.014927241 0.037937712 0.028057957 -0.043883648
000280 cc fb 77 3d 5a 3c 97 bc 12 5b 07 3d ce f0 45 3d
       0.060542867 -0.018461395 0.033045836 0.048325352
000290 f2 db 06 bc 6e 45 8e bc 7e af c8 3c f0 47 92 3d
       -0.00823115 -0.017367091 0.024497744 0.07142627
0002a0 43 13 88 bc 3b 08 51 3d d4 6b 89 3c e3 be b9 3d
       -0.016610747 0.05103324 0.01677505 0.09069612
0002b0 7a 19 5e 3c aa 85 6f 3d 8f 29 83 bd c7 ff 09 bd
       0.013555879 0.05847708 -0.06404411 -0.033691194
0002c0 89 99 2f bd c7 56 2e 3d 80 a5 d2 bc 9b ec 73 3c
       -0.042871032 0.042563226 -0.025713682 0.014887954
0002d0 14 d9 26 3c de 70 8b bc ac 23 72 3d cc 5a c7 bc
       0.010183591 -0.017021593 0.05911605 -0.024335288
0002e0 e4 ef be bd 21 16 17 bd 8a be 3f bd 0e c0 f3 bc
       -0.09323099 -0.03688634 -0.04681257 -0.029754665
0002f0 7d 0f 78 bd ea 1f 62 3d b6 88 10 3d be 73 37 3c
       -0.060561646 0.055206217 0.035286628 0.011197029
000300 37 39 ca 3c 15 b4 a2 3c 34 c2 e6 bb 49 a0 38 3d
       0.024685485 0.01986126 -0.007042194 0.045074735
000310 83 4a 8c bc e8 69 0b bb 4c 3a 69 bd 33 29 a9 bc
       -0.017125374 -0.0021272842 -0.05694036 -0.020649528
000320 be 28 54 3c 84 61 0d bc ce 79 e2 3c aa ca 51 3c
       0.012949167 -0.008629207 0.027645972 0.0128046665
000330 75 a1 d7 bd c3 06 8d bc 44 23 7e ba c2 74 b6 3c
       -0.10528842 -0.017215138 -0.0009694586 0.022272471
000340 07 38 66 3d 67 9d ad bc b3 3d cd bd aa 58 93 3c
       0.056205776 -0.02119322 -0.10021534 0.017986614
000350 60 67 6c 3d a2 93 31 bd c9 d8 57 3d 8f b4 a6 3c
       0.057715774 -0.043353684 0.052696977 0.020349769
000360 b2 f5 92 bb af 99 73 3d 6f 43 a9 bc 03 85 53 bc
       -0.0044848556 0.059472736 -0.020662038 -0.01291013
000370 11 c1 78 bb 69 3a 11 bd ce 8c 81 3d 43 f9 cf bd
       -0.0037956873 -0.035456095 0.063256845 -0.10154965
000380 4d 50 82 bc a1 12 47 bd 40 c5 56 3d 97 11 95 ba
       -0.015907431 -0.04860175 0.052434206 -0.001137304
000390 29 20 44 bd bf a0 76 bd 4b c1 c6 3c 7e f8 11 bd
       -0.047882233 -0.060211893 0.024262091 -0.03563737
0003a0 86 56 a3 bd 66 8a e3 b9 1e c0 d4 3c c6 ff 3c bd
       -0.079754874 -0.0004339993 0.025970515 -0.046142362
0003b0 ca d7 f1 bc a3 31 44 bc 59 70 b7 bc c0 b3 5d bd
       -0.029521842 -0.011974725 -0.022392439 -0.0541265
0003c0 3c b9 23 3c c2 23 ae bd 02 07 51 3d 2e 11 28 3d
       0.009992894 -0.08502914 0.051032074 0.04103201
0003d0 e4 fd 82 3d 2c 69 39 3c fb 5c 7f bd 86 80 8b 3d
       0.06396082 0.011316579 -0.062344532 0.06811623
0003e0 b3 65 8b 3d aa b4 90 3d 50 b9 77 bc 3b fb 1d 3d
       0.06806507 0.07065709 -0.015119866 0.03856967
0003f0 d0 7e 1b bd cf 62 5d bd 67 df 51 bd e9 11 37 3d
       -0.037962735 -0.05404931 -0.051238444 0.044694815

fc.bias f4 [2]
000000 34 26 08 3d 4c 76 14 3d
       0.03323956 0.03624563
